model/trained_models/model_1.pth (torch, 254456 bytes, 10 tensors)

conv_block_1.0.weight f4 [20, 3, 3, 3]
-0.24496946 -0.12779064 0.032337546 0.06818173 0.013319888 -0.12996562 0.042551722 0.08748711
-0.23997776 -0.11291835 -0.20910783 -0.23032628 0.018878607 0.08893474 -0.09750377 -0.11389733
-0.049581204 -0.2307129 0.093062155 -0.06384882 0.050282877 0.13040021 0.0845696 0.021917341
-0.08616762 -0.106846824 0.14579958 -0.0805083 0.12864543 -0.20024025 -0.22626477 0.1256578
0.05482697 -0.2201731 0.013247239 -0.16473725 -0.016936684 -0.025550148 -0.14189963 -0.048937403
-0.1374395 0.0723901 -0.16605109 0.14625482 -0.14610036 0.11293229 0.12460459 0.016971666
0.01419832 -0.21472377 -0.06545167 0.052311406 -0.12331728 -0.0983747 -0.091527306 -0.09772824
-0.10898312 0.0398971 0.0031666695 -0.11638521 -0.14174977 -0.1816149 -0.23460004 -0.09114534
-0.072987445 0.028356152 -0.14760067 0.021573357 -0.10547984 0.03324867 0.09185872 0.07014427
0.11559106 -0.005747739 -0.05342717 0.030628443 -0.23897135 0.09263909 -0.15260494 -0.25720215
0.03310702 -0.19317788 -0.037790865 -0.14836125 -0.11603211 -0.07566385 0.07287262 -0.25773883
-0.16160531 0.020766629 0.10117102 0.11420753 -0.2298998 -0.1460888 -0.118520565 -0.122408606
-0.03760159 0.012075325 -0.07434854 -0.026811201 0.09617331 -0.2412041 0.021200769 -0.15692212
-0.059325855 0.06979009 0.0015294794 -0.04551696 -0.1504502 0.007030021 -0.050737284 0.14397857
0.110249065 -0.09450919 0.06723055 0.015019577 0.066475146 -0.1019578 -0.05656345 0.010558843
-0.009962706 -0.20185135 0.0040309476 0.14133494 -0.14933375 -0.010531978 -0.078159615 -0.16123873
-0.084428325 0.0481969 -0.13582629 -0.14586948 -0.14804526 -0.083826356 -0.17239378 -0.0020505397
0.02816409 0.013392667 0.016125666 0.0058690603 0.10919643 -0.096070476 0.063079335 0.09076933
-0.17206956 -0.13661468 -0.07326224 0.051550027 0.1230768 -0.08880559 0.05699792 -0.09084221
-0.00044395434 0.1191603 -0.123378046 -0.020647647 -0.017258035 -0.052355733 -0.02639604 -0.104201876
0.016133713 0.11390155 -0.06776667 -0.060570817 -0.112805404 -0.2093437 0.13625026 -0.19547217
0.13902867 -0.15192235 -0.014594387 -0.06981529 0.030426202 0.057019573 -0.1409232 0.054012045
-0.16471109 0.08571484 0.0451865 0.13078348 -0.08599783 0.12200169 -0.18084234 0.003933973
0.011288126 -0.023863968 0.10377508 -0.13987182 -0.17611171 -0.14010206 0.0925914 0.03819594
-0.026895855 0.08193918 0.08555401 -0.23365976 -0.15760556 -0.10462964 -0.05063637 -0.11199637
-0.06537273 0.12463111 -0.053550918 0.094908156 -0.14922903 -0.106406316 -0.058287323 -0.054407757
-0.006054608 0.09255473 -0.20767452 -0.019550798 0.06808959 0.05128883 -0.19390751 -0.18186086
0.06723453 -0.15004204 -0.13510709 -0.1695122 -0.10220547 0.00860773 -0.008166059 0.119899616
-0.071659476 -0.23093438 -0.0150118 0.04072934 0.0015518026 0.055979542 -0.24306677 0.09291656
0.12329127 0.007888901 0.032146342 -0.077093594 -0.12552923 -0.053767793 -0.11921999 -0.14011368
-0.07942324 -0.14689417 -0.15697415 0.016675891 -0.13242686 0.10929996 0.058541674 0.07591434
0.03219877 -0.08802446 -0.05996911 0.12232131 0.10878591 0.045890197 0.024099786 -0.0039169677
00000000: 46d9 7abe 8ddb 02be 6074 043d dda2 8b3d
00000010: a93b 5a3c b515 05be b74a 2e3d 712c b33d
00000020: bbbc 75be bc41 e7bd 5d20 56be a7da 6bbe
00000030: 4fa7 9a3c 6b23 b63d 0eb0 c7bd 0143 e9bd
00000040: a915 4bbd 0140 6cbe 5f97 be3d 2cc3 82bd
00000050: 6bf5 4d3d a287 053e d432 ad3d ff8b b33c
00000060: a678 b0bd 82d2 dabd 7c4c 153e 89e1 a4bd
00000070: a1bb 033e c80b 4dbe f4b1 67be 70ac 003e
00000080: 3f92 603d 0f75 61be f30a 593c e2b0 28be
00000090: cdbe 8abc 8b4e d1bc 234e 11be 9672 48bd
000000a0: f1bc 0cbe 4341 943d 4c09 2abe d3c3 153e
000000b0: 559b 15be 0b49 e73d b130 ff3d 2a08 8b3c
000000c0: 12a0 683c 8ce0 5bbe 860b 86bd 7c44 563d
000000d0: c58d fcbd ad78 c9bd ab72 bbbd be25 c8bd
000000e0: 8b32 dfbd 246b 233d e687 4f3b 5e5b eebd
000000f0: da26 11be 42f9 39be fe3a 70be 68aa babd
00000100: 717a 95bd 294b e83c a124 17be 9cba b03c
00000110: d005 d8bd c22f 083d 6d20 bc3d cda7 8f3d
00000120: 01bb ec3d 8857 bcbb 73d6 5abd 80e8 fa3c
00000130: e8b4 74be 90b9 bd3d 7844 1cbe 00b0 83be
00000140: 3a9b 073d 6cd0 45be 98ca 1abd 03ec 17be
00000150: 3ea2 edbd a6f5 9abd 3d3e 953d 58f6 83be
00000160: dd7b 25be c71e aa3c c032 cf3d a3e5 e93d
00000170: da6a 6bbe 4d98 15be e9ba f2bd 5db1 fabd
00000180: 2004 1abd 95d7 453c 0c44 98bd 2aa3 dbbc
00000190: 83f6 c43d 35fe 76be 3cad ad3c 31b0 20be
000001a0: abff 72bd 1bee 8e3d d078 c83a fe6f 3abd
000001b0: 9e0f 1abe 175c e63b e6d1 4fbd 1e6f 133e
000001c0: 43ca e13d 098e c1bd 2cb0 893d ac14 763c
000001d0: 1f24 883d 40cf d0bd 13af 67bd fffe 2c3c
000001e0: 9e3a 23bc 1fb2 4ebe 0a16 843b 1bba 103e
000001f0: f2ea 18be 518e 2cbc 2612 a0bd c41b 25be
00000200: c2e8 acbd 1d6a 453d 0c16 0bbe cf5e 15be
00000210: 2d99 17be 27ad abbd ff87 30be 5962 06bb
00000220: 61b8 e63c eb6c 5b3c f919 843c 3f51 c03b
00000230: 61a2 df3d 99c0 c4bd bd2f 813d 45e5 b93d
00000240: 0133 30be b8e4 0bbe 830a 96bd 1f26 533d
00000250: b00f fc3d b5df b5bd a776 693d 7b0b babd
00000260: 8bc2 e8b9 510a f43d a1ad fcbd 4125 a9bc
00000270: b960 8dbc f772 56bd 823c d8bc cb67 d5bd
00000280: d92a 843c 3745 e93d 40c9 8abd 1b19 78bd
00000290: 8506 e7bd 325e 56be 3085 0b3e db29 48be
000002a0: 885d 0e3e 8891 1bbe 4c1d 6fbc 52fb 8ebd
000002b0: 5f40 f93c 5b8d 693d 2c4e 10be bc3b 5d3d
000002c0: 06aa 28be 438b af3d 7b15 393d 1bec 053e
000002d0: a11f b0bd 06dc f93d bc2e 39be 8fe8 803b
000002e0: d5f1 383c 5e7e c3bc 0788 d43d 8f3a 0fbe
000002f0: a156 34be ea76 0fbe 8fa0 bd3d 5973 1c3d
00000300: b254 dcbc bbcf a73d f136 af3d 8144 6fbe
00000310: 5a63 21be 1148 d6bd 1568 4fbd 5a5e e5bd
00000320: 23e2 85bd 983e ff3d 3558 5bbd 355f c23d
00000330: 7fcf 18be 8eeb d9bd b0be 6ebd abda 5ebd
00000340: bc65 c6bb 568d bd3d a1a8 54be ff28 a0bc
00000350: 8e72 8b3d 3c14 523d b18f 46be bc39 3abe
00000360: 42b2 893d 9fa4 19be 8359 0abe 9b94 2dbe
00000370: 1a51 d1bd 7007 0d3c efca 05bc ee8d f53d
00000380: 34c2 92bd 107a 6cbe 0ef4 75bc cfd3 263d
00000390: db65 cb3a ce4a 653d 7fe6 78be 0a4b be3d
000003a0: 2280 fc3d 7340 013c e2ab 033d 3fe3 9dbd
000003b0: bc8a 00be 9e3b 5cbd 9c29 f4bd f679 0fbe
000003c0: a7a8 a2bd 6d6b 16be d5bd 20be e19b 883c
000003d0: e89a 07be a8d8 df3d 65c9 6f3d fa78 9b3d
000003e0: dce2 033d 2b46 b4bd 2ba2 75bd 9883 fa3d
000003f0: 26cb de3d 5cf7 3b3d ea6c c53c e859 80bb

conv_block_1.0.bias f4 [20]
-0.034920204 0.12509532 -0.042032175 0.09656201 0.0053494866 -0.011615443 -0.14294322 0.023920737
0.03905291 0.11306696 -0.001862584 -0.19314279 0.080885634 0.1300602 0.06636493 -0.08336105
-0.045889035 0.1405803 0.11061677 -0.20111668
00000000: 7d08 0fbd fd18 003e ee29 2cbd 4ec2 c53d
00000010: bf4a af3b b34e 3ebc b55f 12be 6cf5 c33c
00000020: f2f5 1f3d a68f e73d f321 f4ba 39c7 45be
00000030: 5ea7 a53d 802e 053e 56ea 873d 33b9 aabd
00000040: 24f6 3bbd 48f4 0f3e 0c8b e23d 88f1 4dbe

conv_block_1.2.weight f4 [20, 20, 3, 3]
-0.06746384 -0.1167222 -0.064967126 -0.11830684 -0.06384169 -0.13130857 -0.11165572 -0.060091067
-0.022681978 -0.07307287 -0.08778127 -0.0031750498 -0.051101204 -0.09790319 -0.09003746 -0.01744831
-0.05496201 -0.06213081 -0.05249903 -0.08498384 -0.07099864 0.003345733 -0.010600631 -0.041183494
-0.040644575 -0.06349176 -0.124524474 -0.10425403 -0.03379291 -0.035471167 -0.049432367 -0.10267662
-0.02271283 0.0061033736 -0.041327417 -0.038316473 0.011462988 -0.055687822 -0.09748452 -0.12842445
-0.09419506 -0.06391977 -0.01895839 -0.095840976 -0.03824587 -0.030117592 -0.0635044 -0.11403877
-0.081818685 -0.12602144 -0.07209725 0.008693117 -0.06380179 -0.04147487 -0.074396275 -0.09027419
-0.06743245 0.009886487 -0.10767969 -0.048636578 -0.10771815 -0.06305289 -0.07087382 -0.08125547
0.0066551226 -0.058322407 -0.085927464 -0.09220801 -0.008947448 -0.04458007 -0.09260663 0.004410445
-0.10530583 -0.030492328 -0.07629046 -0.066546366 -0.013077656 -0.07937338 -0.04666922 -0.066580065
-0.0036495011 -0.08407639 0.004214831 -0.07501503 -0.06923981 -0.13331117 -0.0526448 -0.03428291
-0.11027451 -0.012495882 -0.013833726 0.011629822 -0.0013019871 -0.12201657 -0.10169299 -0.07607479
-0.018512694 -0.06704974 -0.055163324 -0.12965485 -0.06223838 -0.0118866805 -0.105253465 -0.093480244
-0.037808746 -0.07031795 -0.012529535 -0.030976243 -0.04580389 -0.055326834 -0.12961487 -0.045069586
-0.056023262 -0.02893885 -0.0045616785 -0.117109045 0.01050741 -0.12684529 -0.08183002 -0.05075179
-0.012132583 -0.090031296 -0.0897978 -0.08110321 -0.12252227 -0.015789708 -0.09660971 -0.13404962
-0.08029207 0.008132873 -0.042149425 -0.05766678 -0.10690355 -0.010225219 0.0061681094 -0.12650321
-0.12843621 0.013288286 -0.13080476 -0.058272228 -0.007465661 0.011313672 0.059962213 -0.06070291
-0.07051078 -0.103897326 -0.12190547 -0.039126698 -0.010314299 -0.10651658 0.0056353924 -0.049186487
-0.04481987 -0.08891593 -0.022039467 -0.06822498 -0.104335375 -0.08857751 -0.12315014 -0.12705986
-0.08817333 0.012542464 -0.059352677 -0.036471304 -0.005319479 -0.09847774 -0.116171114 -0.11851111
-0.13359512 -0.06660673 -0.030209878 0.031150587 -0.03114162 -0.100749254 0.005789419 0.005166976
-0.037369914 0.11116858 0.020620117 0.025550894 -0.005601182 -0.008227108 0.04015823 0.12168189
0.07238843 -0.0026896903 0.026177542 0.1274826 0.11892607 0.019510806 0.021026265 0.07472453
0.022493979 0.06501149 0.044539746 0.09324632 0.08463203 0.124857634 0.048176482 0.006447171
-0.006438748 0.0018616237 0.010730603 0.083025604 0.09799669 0.09727125 0.091628365 0.023429124
0.051138107 0.09897957 0.090172306 0.11393475 -0.002141525 0.13490951 0.070389464 0.0015054628
0.030634277 0.10490095 0.08453112 0.053451713 0.12229564 0.1407856 0.12756704 0.048598167
-0.002857899 0.06030058 0.09532775 0.075725004 0.042307753 0.10380433 0.012468507 0.10257669
0.110206656 0.07333808 0.09799335 0.020805633 0.011800119 0.036137182 0.06538635 0.06394311
0.03453538 0.09660914 0.082724966 0.088812664 0.025227426 0.00039173456 0.121634014 0.053862747
0.10984406 0.07390035 0.13431717 0.13899107 0.09341662 0.03366252 -0.008561177 0.033938408
00000000: 7b2a 8abd 0c0c efbd 7c0d 85bd db4a f2bd
00000010: 6fbf 82bd c175 06be c1ab e4bd 0d22 76bd
00000020: 8ecf b9bc 3ba7 95bd abc6 b3bd 7f14 50bb
00000030: 7f4f 51bd 7881 c8bd 8f65 b8bd c2ef 8ebc
00000040: d81f 61bd e07c 7ebd 3909 57bd 020c aebd
00000050: bc67 91bd 1644 5b3b 45ae 2dbc 06b0 28bd
00000060: ed7a 26bd f807 82bd b006 ffbd 2383 d5bd
00000070: 6f6a 0abd 374a 11bd 9879 4abd 1f48 d2bd
00000080: 4210 babc cffe c73b f046 29bd bcf1 1cbd
00000090: 42cf 3b3c ea18 64bd f7a5 c7bd b381 03be
000000a0: 57e9 c0bd 5ee8 82bd a04e 9bbc 4648 c4bd
000000b0: b4a7 1cbd 2bb9 f6bc 980e 82bd 298d e9bd
000000c0: 8e90 a7bd c40b 01be b9a7 93bd 936d 0e3c
000000d0: 83aa 82bd 8ee1 29bd 135d 98bd ade1 b8bd
000000e0: 061a 8abd effa 213c 2b87 dcbd 2637 47bd
000000f0: 559b dcbd e021 81bd 4b26 91bd 4569 a6bd
00000100: 3713 da3b 7ae3 6ebd bdfa afbd 8ed7 bcbd
00000110: 5198 12bc 9799 36bd 8ba8 bdbd 7f85 903b
00000120: 95aa d7bd 0ccb f9bc 2c3e 9cbd 7649 88bd
00000130: aa43 56bc 838e a2bd 3928 3fbd 215b 88bd
00000140: 782c 6fbb 3e30 acbd 911c 8a3b 7ba1 99bd
00000150: 9acd 8dbd b982 08be 13a2 57bd 3d6c 0cbd
00000160: 9ad7 e1bd 87bb 4cbc daa6 62bc 028b 3e3c
00000170: 70a7 aaba d3e3 f9bd 6a44 d0bd 19cd 9bbd
00000180: efa7 97bc 6051 89bd f0f2 61bd 3ec4 04be
00000190: aced 7ebd 5ac0 42bc 218f d7bd 9272 bfbd
000001a0: 58dd 1abd db02 90bd ae48 4dbc e4c1 fdbc
000001b0: dc9c 3bbd 649e 62bd c3b9 04be e39a 38bd
000001c0: a678 65bd 2b11 edbc 227a 95bb ded6 efbd
000001d0: 4627 2c3c bbe3 01be 7f96 a7bd 1ce1 4fbd
000001e0: bec7 46bc 5462 b8bd e9e7 b7bd 7119 a6bd
000001f0: f5ec fabd 6b59 81bc 50db c5bd 4e44 09be
00000200: 2b70 a4bd be3f 053c e0a4 2cbd 0034 6cbd
00000210: 40f0 dabd ad87 27bc da1d ca3b 0f8a 01be
00000220: c884 03be 1cb7 593c aff1 05be dcae 6ebd
00000230: 81a2 f4bb fb5c 393c f09a 753d 9da3 78bd
00000240: f567 90bd 1fc8 d4bd 93a9 f9bd 5143 20bd
00000250: 4efd 28bc 5d25 dabd 19a9 b83b c577 49bd
00000260: 0a95 37bd 8e19 b6bd 1d8c b4bc 8ab9 8bbd
00000270: c9ad d5bd 2068 b5bd 2436 fcbd fb1b 02be
00000280: 3894 b4bd e87e 4d3c cb1b 73bd ef62 15bd
00000290: 064f aebb b3ae c9bd 1feb edbd f4b5 f2bd
000002a0: 29cd 08be 1c69 88bd b57a f7bc 842f ff3c
000002b0: b61c ffbc a055 cebd 2bb5 bd3b bc4f a93b
000002c0: 3211 19bd 5aac e33d 85eb a83c 1c50 d13c
000002d0: 1f8a b7bb feca 06bc f57c 243d 5b34 f93d
000002e0: 6340 943d 8445 30bb 4972 d63c cc8a 023e
000002f0: 838f f33d 20d5 9f3c 463f ac3c 2d09 993d
00000300: 4b45 b83c be24 853d 4f6f 363d edf7 be3d
00000310: 8f53 ad3d 5cb5 ff3d b454 453d ca42 d33b
00000320: 22fc d2bb ba01 f43a 69cf 2f3c 5409 aa3d
00000330: 7db2 c83d 2636 c73d a7a7 bb3d 6fee bf3c
00000340: 3176 513d cdb5 ca3d 42ac b83d 9f56 e93d
00000350: d458 0cbb b825 0a3e 5a28 903d f352 c53a
00000360: bcf4 fa3c 4fd6 d63d a71e ad3d 2ff0 5a3d
00000370: 2376 fa3d 1a2a 103e efa0 023e df0e 473d
00000380: 974b 3bbb befd 763d 323b c33d b615 9b3d
00000390: e54a 2d3d 5d97 d43d b548 4c3c ba13 d23d
000003a0: 07b4 e13d 4632 963d bdb0 c83d 9370 aa3c
000003b0: 4955 413c 9504 143d 47e9 853d 9bf4 823d
000003c0: f874 0d3d 03db c53d b56b a93d 6ae3 b53d
000003d0: bfa9 ce3c b961 cd39 411b f93d 2f9f 5c3d
000003e0: ecf5 e03d 1159 973d 718a 093e ad53 0e3e
000003f0: 3651 bf3d b6e1 093d 2e44 0cbc 0003 0b3d

conv_block_1.2.bias f4 [20]
-0.024855992 0.08865883 -0.09497781 0.047387443 -0.0797037 -0.15489702 0.11131419 -0.050267182
-0.039160956 0.010530496 -0.04146851 -0.0007989501 -0.06338244 -0.0660286 -0.11632179 -0.03950661
-0.10130431 -0.052790835 -0.011136602 -0.13889432
00000000: cb9e cbbc c392 b53d ba83 c2bd 5619 423d
00000010: b23b a3bd 539d 1ebe b2f8 e33d f6e4 4dbd
00000020: 3d67 20bd 1a88 2c3c e2da 29bd a270 51ba
00000030: a7ce 81bd 013a 87bd 1e3a eebd afd1 21bd
00000040: a278 cfbd 343b 58bd 4b76 36bc 503a 0ebe

conv_block_2.0.weight f4 [20, 20, 3, 3]
-0.10678896 -0.03351991 -0.10261208 -0.051411882 0.009565021 -0.12295623 -0.08611076 -0.13019854
-0.07678229 0.044908114 -0.033622876 -0.100086376 -0.008613191 -0.044506285 -0.06507617 0.080659114
-0.07511881 -0.07443265 -0.012779742 -0.061101433 -0.112794615 -0.06854868 -0.07172677 -0.0322165
-0.10610244 -0.01602794 -0.025807722 -0.09005153 0.016720513 -0.02186055 -0.017112823 -0.02990956
-0.0714169 0.024219373 0.040496387 -0.06867567 -0.091249205 -0.086899936 -0.0154856695 -0.046000533
-0.062791474 -0.11188201 -0.089653365 -0.06579055 -0.053169016 -0.122450076 -0.008886303 -0.01130693
-0.015278452 0.007828176 0.009436791 -0.10415365 0.011969508 -0.09665176 -0.007761018 0.025066556
-0.020806683 -0.049431555 0.03598558 -0.07423468 -0.00029055568 0.040328436 -0.13529508 -0.10029091
0.011428573 -0.030247299 -0.041131355 -0.10907118 0.0005448593 -0.11325239 -0.018110592 -0.08130566
-0.08300176 -0.020153683 -0.0031544336 -0.018320024 -0.08341942 -0.10702339 -0.07956756 -0.019580983
-0.05893742 -0.066625305 -0.07032757 -0.12994313 0.0029349811 -0.083345525 -0.058751415 -0.019885061
-0.024375632 -0.044385888 -0.08854826 0.12028629 0.09262132 0.052158758 0.09927041 -0.020655245
0.08238101 0.0018750206 0.018704085 0.0124796 -0.07522112 -0.06971949 -0.020187078 -0.098847754
0.037622437 -0.12323326 -0.07010014 -0.03878372 0.0035104617 0.013952043 -0.12204188 -0.06325713
0.021899315 0.033599015 -0.09217046 0.012450665 -0.04849761 -0.045873906 -0.084404856 -0.0023682534
-0.0680968 -0.028335012 -0.10234258 -0.059483875 -0.08117044 -0.07116576 -0.12526922 -0.11298961
-0.06565787 -0.06318481 0.0048704115 -0.11629358 -0.076763466 0.010579499 -0.12143286 -0.09927142
-0.0718835 0.07332037 -0.103393815 0.036801863 0.108567774 -0.021289552 0.1032436 -0.08960875
-0.036825586 0.06867171 0.11026266 0.12665497 -0.10689133 0.12331166 -0.042633735 -0.012750137
0.10988325 -0.044317525 -0.060542557 -0.021961337 0.01107099 -0.00091418123 -0.03649847 0.00027578414
-0.13167909 -0.010752535 -0.066565365 -0.06577954 -0.030084979 -0.06653991 -0.09032618 -0.12086332
-0.09137615 -0.108583555 -0.07674424 -0.09306053 0.053731874 -0.119240165 -0.13316566 0.11440043
-0.116944246 -0.06737101 -0.03021826 -0.027048687 -0.007480821 -0.12506895 -0.048143517 -0.06554197
-0.03825492 -0.025036875 -0.0008629833 -0.023908809 -0.006296411 -0.12850364 -0.10941763 -0.11076715
-0.03558109 -0.02484357 0.03791 0.067310326 -0.030211385 -0.13174887 -0.048609283 -0.008424446
0.0026514202 0.013231072 -0.12600793 -0.07704358 -0.1323424 -0.092844404 -0.076587304 0.08925548
-0.09381164 -0.034193087 -0.057739835 -0.10707066 0.07957193 0.0052981507 -0.055130105 -0.13935766
-0.13421091 -0.12928465 -0.04787138 -0.08257243 -0.10786252 -0.05297569 -0.085384116 -0.049723297
-0.12125524 0.0067952303 -0.021610137 -0.118238874 0.009617436 -0.08643804 -0.09679386 0.005918588
-0.07086797 -0.010696573 -0.042891353 0.059895094 0.06661821 -0.040834844 -0.060639158 0.012985869
-0.042425126 -0.0047342298 0.039760068 -0.018639255 -0.094375 -0.076225765 -0.04552766 -0.034655076
-0.016877078 -0.08950252 -0.08742613 -0.13329577 -0.10824434 -0.08760138 0.009078231 -0.10931856
00000000: 2cb4 dabd 2c4c 09bd 4826 d2bd 4495 52bd
00000010: 9bb6 1c3c 7ad0 fbbd d75a b0bd c452 05be
00000020: 0940 9dbd 92f1 373d 24b8 09bd 16fa ccbd
00000030: 571e 0dbc 394c 36bd a846 85bd 9b30 a53d
00000040: e4d7 99bd 2570 98bd 1f62 51bc 7f45 7abd
00000050: dd00 e7bd 4063 8cbd 7ce5 92bd 73f5 03bd
00000060: 3c4c d9bd 074d 83bc b76a d3bc f06c b8bd
00000070: 75f9 883c e514 b3bc 3130 8cbc e504 f5bc
00000080: 0643 92bd b567 c63c 8adf 253d d4a5 8cbd
00000090: dde0 babd 98f8 b1bd 9bb7 7dbc 0e6b 3cbd
000000a0: d198 80bd 6522 e5bd 2f9c b7bd 32bd 86bd
000000b0: c1c7 59bd 1bc7 fabd db97 11bc b440 39bc
000000c0: 7952 7abc c041 003c c59c 1a3c 824e d5bd
000000d0: c11b 443c 5cf1 c5bd 2350 febb 6158 cd3c
000000e0: c772 aabc be78 4abd 9e65 133d 5a08 98bd
000000f0: b955 98b9 6e2f 253d cb8a 0abe 5265 cdbd
00000100: e93e 3b3c 2fc9 f7bc 5a79 28bd b660 dfbd
00000110: e3d4 0e3a def0 e7bd aa5c 94bc 9583 a6bd
00000120: d4fc a9bd 5619 a5bc 9dba 4ebb e013 96bc
00000130: cdd7 aabd 142f dbbd 51f4 a2bd 4c68 a0bc
00000140: 5d68 71bd d972 88bd e707 90bd d00f 05be
00000150: d058 403b 0fb1 aabd 53a5 70bd ffe5 a2bc
00000160: 68af c7bc facd 35bd ca58 b5bd a958 f63d
00000170: 3fb0 bd3d 6ca4 553d 494e cb3d 3035 a9bc
00000180: 60b7 a83d 40c3 f53a 4f39 993c 3c77 4c3c
00000190: 880d 9abd 18c9 8ebd 5f5f a5bc b170 cabd
000001a0: fc19 1a3d b861 fcbd aa90 8fbd aedb 1ebd
000001b0: c60f 663b 1c97 643c 18f1 f9bd f48c 81bd
000001c0: 3166 b33c 1f9f 093d dec3 bcbd e0fd 4b3c
000001d0: 6ea5 46bd 47e6 3bbd 74dc acbd b334 1bbb
000001e0: 5676 8bbd d41e e8bc fd98 d1bd 5da5 73bd
000001f0: b03c a6bd 5bbf 91bd 9346 00be 1967 e7bd
00000200: a277 86bd 0a67 81bd f997 9f3b 542b eebd
00000210: 2a36 9dbd a355 2d3c cbb1 f8bd d04e cbbd
00000220: a837 93bd fd28 963d 23c0 d3bd 8dbd 163d
00000230: c858 de3d 6d67 aebc 6171 d33d cb84 b7bd
00000240: 6dd6 16bd c1a3 8c3d 64d1 e13d d7b1 013e
00000250: d7e9 dabd d38a fc3d b6a0 2ebd f3e5 50bc
00000260: 780a e13d 4b86 35bd 79fb 77bd 43e8 b3bc
00000270: 1963 353c aaa5 6fba 6b7f 15bd 1f97 9039
00000280: e2d6 06be 672b 30bc 6c53 88bd 6cb7 86bd
00000290: c674 f6bc 1446 88bd effc b8bd 3087 f7bd
000002a0: 6b23 bbbd 0e61 debd 162c 9dbd 8596 bebd
000002b0: f415 5c3d 3034 f4bd 945c 08be c64a ea3d
000002c0: 7780 efbd d0f9 89bd 498c f7bc 3595 ddbc
000002d0: ad21 f5bb 1312 00be 2332 45bd de3a 86bd
000002e0: 31b1 1cbd 221a cdbc d439 62ba 68dc c3bc
000002f0: 2052 cebb 7596 03be 5a16 e0bd e3d9 e2bd
00000300: 7abd 11bd be84 cbbc 8447 1b3d ffd9 893d
00000310: de7d f7bc 2de9 06be 871a 47bd b006 0abc
00000320: 73c3 2d3b 23c7 583c 3908 01be 06c9 9dbd
00000330: c484 07be 3525 bebd ced9 9cbd 94cb b63d
00000340: 5120 c0bd 0d0e 0cbd 9b80 6cbd dd47 dbbd
00000350: 9cf6 a23d 1c9c ad3b 1bd0 61bd c6b3 0ebe
00000360: 966e 09be 3263 04be c814 44bd bc1b a9bd
00000370: 06e7 dcbd 0afd 58bd dedd aebd a8aa 4bbd
00000380: ab54 f8bd 86aa de3b be07 b1bc 3927 f2bd
00000390: 7392 1d3c 6d06 b1bd dc3b c6bd b7f0 c13b
000003a0: 3a23 91bd ae40 2fbc d8ae 2fbd 8f54 753d
000003b0: 216f 883d 7042 27bd c460 78bd afc2 543c
000003c0: f8c5 2dbd 9921 9bbb 74db 223d 5ab1 98bc
000003d0: ae47 c1bd 411c 9cbd 367b 3abd 7bf2 0dbd
000003e0: cc41 8abc 194d b7bd 790c b3bd b07e 08be
000003f0: 35af ddbd 5a68 b3bd dcbc 143c 69e2 dfbd

conv_block_2.0.bias f4 [20]
-0.13237345 -0.024888203 0.0017961136 -0.042322475 -0.044808198 -0.006866819 -0.12448497 -0.025331859
-0.13683277 -0.08418679 -0.006407495 -0.055655897 -0.010650877 0.0024903396 -0.0016193894 -0.04152362
-0.10084771 -0.13966142 -0.03565494 -0.12672421
00000000: e88c 07be 58e2 cbbc 926b eb3a 555a 2dbd
00000010: cd88 37bd 0e03 e1bb faf1 febd c284 cfbc
00000020: e41d 0cbe 206a acbd f7f5 d1bb 70f7 63bd
00000030: 0481 2ebc f734 233b b141 d4ba ac14 2abd
00000040: 3f89 cebd 6703 0fbe ea0a 12bd fec3 01be

conv_block_2.2.weight f4 [20, 20, 3, 3]
0.14898227 0.0042450116 0.12738678 -0.011422034 -0.0053884927 0.0060280785 0.05852041 -0.14264955
0.12078331 0.094286464 0.02614809 -0.10898504 0.029016824 0.047110673 -0.089600615 -0.008265072
0.004643752 -0.06994461 -0.03107606 -0.07363662 -0.0786877 -0.14255068 -0.048885923 -0.05926196
0.0012586478 -0.08979499 -0.12649645 -0.031973287 -0.06705353 -0.006020882 -0.04297349 -0.026713448
-0.089208856 -0.040689368 0.0055925976 -0.09511217 0.033332184 0.108230814 0.074931554 0.027958984
0.0147688305 0.105679974 0.055600416 -0.011778146 0.01749989 -0.026910719 0.026925126 0.023436822
-0.025898961 -0.03324301 0.038935173 -0.12486566 0.0013100499 0.014405053 0.015495914 0.013822672
0.10633254 0.12582462 0.11112036 -0.010464956 0.058878053 0.0707033 0.11419464 -0.10143819
-0.094480984 -0.06311855 -0.07704044 -0.05018603 -0.07557513 -0.078550026 -0.103024326 0.08662025
-0.021533497 0.011659165 -0.05985054 -0.04704979 0.093476504 0.049854126 0.011150484 -0.06623157
-0.07107127 -0.0836534 -0.078373455 -0.06682315 -0.07065713 -0.07867956 -0.03051444 -0.017795451
-0.05654896 -0.010336771 0.08680134 0.10304913 0.16394302 0.07806163 0.13555582 0.07877346
0.10942752 0.078103356 0.11178845 -0.0037584533 -0.11695099 -0.06666859 -0.043454368 -0.029619813
-0.14172685 -0.11925999 -0.103513554 -0.06705728 0.06984382 -0.08132052 0.027845232 -0.048117828
-0.0007207544 0.050924256 0.013277195 -0.0011972385 0.13975923 0.013933248 -0.040902875 0.03164434
0.07834877 0.03359707 0.019622507 0.072240025 0.018254146 0.105724335 0.009874077 -0.015277921
0.03916609 -0.05899664 -0.0058414186 0.041081402 0.04443947 -0.0086417515 -0.03237405 -0.0076069376
-0.08172291 -0.025192693 -0.1152198 -0.10844399 -0.0023243097 0.0015359361 -0.068916395 -0.01576766
0.09895305 0.02786226 0.10708337 0.0017208143 0.020988928 -0.060740877 -0.065961726 -0.038752906
0.033517778 0.0656386 0.14416434 0.15648748 0.10331123 0.07924958 0.047081783 0.049444538
0.08741715 0.03948173 0.013946795 -0.10266063 -0.123815924 -0.08889224 -0.11540493 -0.116403714
-0.040132478 -0.09927183 -0.12139273 0.12523276 0.041105475 0.13804042 -0.010258865 0.077467084
-0.14102726 0.1316214 0.0037349176 0.053761575 0.012356252 0.1231983 0.12943499 0.011269624
0.087622225 0.024141397 0.051339284 0.12786919 0.12108693 -0.0032159106 0.09351385 -0.1025047
0.028366163 0.0014605446 -0.09514481 -0.037377056 -0.12242559 -0.115828134 -0.14021842 -0.039789785
-0.14716446 -0.028133135 -0.05142665 -0.13404319 0.00174327 -0.061949488 -0.06933268 0.0022991009
-0.09296522 -0.09130794 -0.07830861 -0.059589826 0.005996276 -0.045115672 -0.09155904 -0.10660515
-0.06529832 -0.050664857 -0.15795237 -0.026772222 -0.06170548 -0.099439986 -0.038122077 -0.10529863
-0.10784567 -0.077792935 -0.020052902 0.016725726 -0.043277446 -0.021519955 -0.001686751 -0.0026273627
-0.1039163 -0.07277407 0.08703128 0.12776032 -0.0058887745 -0.014075645 0.042020068 0.09014651
0.07299535 0.053578842 0.1151538 -0.094745114 -0.08151661 -0.06272866 0.0038830587 -0.098760694
-0.0150774075 0.022761326 -0.09817879 0.00020255952 -0.01667029 0.014511852 0.03150136 0.109676465
00000000: cf8e 183e bd19 8b3b ae71 023e 7c23 3bbc
00000010: f491 b0bb 3087 c53b 19b3 6f3d b912 12be
00000020: 3d5d f73d 4319 c13d 8534 d63c 8c33 dfbd
00000030: b1b4 ed3c 1ff7 403d 8780 b7bd 396a 07bc
00000040: 9d2a 983b 1f3f 8fbd 3993 febc ccce 96bd
00000050: 0427 a1bd cef8 11be 9b3c 48bd abbc 72bd
00000060: 36f9 a43a 70e6 b7bd 4988 01be 6cf6 02bd
00000070: 5c53 89bd d24a c5bb f804 30bd 29d6 dabc
00000080: 22b3 b6bd e5a9 26bd 1c42 b73b 2bca c2bd
00000090: 5487 083d 1ea8 dd3d b775 993d 3d0a e53c
000000a0: f7f8 713c be6e d83d 43bd 633d 20f9 40bc
000000b0: ee5b 8f3c de73 dcbc 1592 dc3c 94fe bf3c
000000c0: 0f2a d4bc d329 08bd 7d7a 1f3d 91b9 ffbd
000000d0: fbb5 ab3a 2c03 6c3c 93e2 7d3c 7d78 623c
000000e0: e0c4 d93d 2bd8 003e 1293 e33d 3575 2bbc
000000f0: 1d2a 713d e4cc 903d e1de e93d d3be cfbd
00000100: 3f7f c1bd 4c44 81bd 61c7 9dbd de8f 4dbd
00000110: 22c7 9abd d6de a0bd 6bfe d2bd f565 b13d
00000120: 0467 b0bc 1506 3f3c d725 75bd 48b7 40bd
00000130: 9c70 bf3d d733 4c3d 85b0 363c 6ba4 87bd
00000140: d08d 91bd 7952 abbd 4382 a0bd 93da 88bd
00000150: afb4 90bd c022 a1bd 6bf9 f9bc c4c7 91bc
00000160: e29f 67bd 8f5b 29bc e7c4 b13d 6c0b d33d
00000170: aee0 273e c7de 9f3d 25cf 0a3e fb53 a13d
00000180: 891b e03d a7f4 9f3d 58f1 e43d 6250 76bb
00000190: 0084 efbd 8b89 88bd 35fd 31bd 40a5 f2bc
000001a0: d820 11be 953e f4bd eafe d3bd 5455 89bd
000001b0: 470a 8f3d 5f8b a6bd af1b e43c 3317 45bd
000001c0: 02f1 3cba f495 503d 9888 593c a8ec 9cba
000001d0: 0b1d 0f3e 4748 643c c689 27bd 7f9d 013d
000001e0: 5275 a03d 159d 093d 61bf a03c 94f2 933d
000001f0: b889 953c 0086 d83d e1c6 213c 3f50 7abc
00000200: 9f6c 203d 76a6 71bd 5f69 bfbb f944 283d
00000210: 2906 363d 2296 0dbc a79a 04bd 9e43 f9bb
00000220: 575e a7bd e860 cebc 5cf8 ebbd e217 debd
00000230: 7253 18bb 7751 c93a 0a24 8dbd 2e2b 81bc
00000240: e6a7 ca3d 653f e43c 874e db3d f28c e13a
00000250: f9f0 ab3c 6dcb 78bd f116 87bd 5ebb 1ebd
00000260: f049 093d 886d 863d d19f 133e 413e 203e
00000270: d794 d33d 9b4d a23d d4d8 403d 5b86 4a3d
00000280: c307 b33d 98b7 213d 1981 643c bd3f d2bd
00000290: 3493 fdbd 220d b6bd 6c59 ecbd 1265 eebd
000002a0: f461 24bd 074f cbbd c09c f8bd 043d 003e
000002b0: 375e 283d 785a 0d3e cc14 28bc 10a7 9e3d
000002c0: 7369 10be c3c7 063e 85c5 743b 1935 5c3d
000002d0: e171 4a3c 644f fc3d 9b8a 043e 3ba4 383c
000002e0: 4873 b33d 2ec4 c53c 2449 523d 24f0 023e
000002f0: 6dfc f73d 07c2 52bb 3084 bf3d fced d1bd
00000300: 2860 e83c bf6f bf3a 48db c2bd af18 19bd
00000310: 45ba fabd 4d37 edbd 6b95 0fbe 9dfa 22bd
00000320: 48b2 16be 7677 e6bc c0a4 52bd 9e42 09be
00000330: 6f7e e43a bfbe 7dbd 4bfe 8dbd 83ac 163b
00000340: 8d64 bebd a8ff babd 4460 a0bd 7614 74bd
00000350: 697c c43b 36cb 38bd 4e83 bbbd cd53 dabd
00000360: 20bb 85bd f485 4fbd 44be 21be 6b51 dbbc
00000370: e3be 7cbd 31a7 cbbd e525 1cbd cfa6 d7bd
00000380: 31de dcbd e751 9fbd fc45 a4bc 6404 893c
00000390: b143 31bd 9e4a b0bc f915 ddba d52f 2cbb
000003a0: 12d2 d4bd 920a 95bd 753d b23d 9ad3 023e
000003b0: 9ff6 c0bb 899d 66bc 3c1d 2c3d bc9e b83d
000003c0: 967e 953d 7d75 5b3d c1d5 eb3d ba09 c2bd
000003d0: 2ef2 a6bd e277 80bd ea7a 7e3b 0c43 cabd
000003e0: 3b07 77bc f675 ba3c f611 c9bd 2866 5439
000003f0: 2290 88bc 1ec3 6d3c 9207 013d 0e9e e03d

conv_block_2.2.bias f4 [20]
-0.009287052 -0.11917355 -0.10002416 -0.039362453 -0.10055534 -0.0070583746 -0.07314274 -0.06617411
-0.07761844 -0.06616773 -0.04825769 -0.032125894 -0.027312953 -0.0731219 -0.07086506 -0.061077956
-0.04066745 -0.062948965 -0.04338861 -0.0839753
00000000: b828 18bc 4311 f4bd 78d9 ccbd 863a 21bd
00000010: f5ef cdbd f049 e7bb dccb 95bd 4b86 87bd
00000020: 6bf6 9ebd f282 87bd dba9 45bd 7196 03bd
00000030: 6abf dfbc efc0 95bd b321 91bd e12c 7abd
00000040: e992 26bd 63eb 80bd 41b8 31bd 3efb abbd

classifier.1.weight f4 [10, 5120]
-0.029171867 -0.037297335 -0.030698951 -0.02606642 -0.03444573 -0.050910607 -0.02976933 -0.041768998
-0.027618852 -0.051973093 -0.025176462 -0.023759475 -0.045091484 -0.031966437 -0.028230283 -0.013059112
-0.03257394 -0.023765309 -0.016225517 -0.02732144 -0.024575762 -0.020621369 -0.033640083 -0.033019964
-0.021121746 -0.025966732 -0.03898024 -0.026768962 -0.030283723 -0.028091947 -0.0394682 0.0014305518
-0.048734117 -0.026533742 -0.043762013 -0.04097142 -0.04637625 -0.02550812 -0.018006813 -0.011932369
-0.025835913 -0.031546414 -0.02450691 -0.042367898 -0.025943547 -0.040880498 -0.03236819 0.008085413
-0.042572487 -0.019181041 -0.04244084 -0.024536194 -0.023583755 -0.033797197 -0.030279506 -0.033266414
-0.01758003 -0.015895355 -0.013184467 -0.02599021 -0.039943125 -0.022015518 -0.018669747 0.0058659804
-0.0503841 -0.037008815 -0.04028062 -0.040599346 -0.039804768 -0.033721108 -0.03632126 -0.034636375
-0.011948737 -0.016631363 -0.026526531 -0.023309508 -0.038776107 -0.01677294 -0.008786861 0.01658617
-0.04987826 -0.046148196 -0.043958012 -0.028810149 -0.045824256 -0.029725282 -0.03627051 -0.021743601
-0.03975531 -0.020263392 -0.019784007 -0.02476861 -0.020007908 -0.0130046345 -0.016210292 0.03128443
-0.056781635 -0.02511796 -0.031809825 -0.024846844 -0.029867694 -0.027392885 -0.039216004 -0.01827924
-0.02270944 -0.02311724 -0.037563957 -0.02028361 -0.025005724 -0.027445266 -0.0030921502 0.028849434
-0.048684403 -0.030258287 -0.03770563 -0.029400082 -0.016285645 -0.036689024 -0.014751108 -0.011860941
-0.021878311 -0.012610416 -0.032469206 -0.013410398 -0.026781365 -0.0021374682 -0.013039159 -0.0043435995
-0.055144764 -0.039342772 -0.023723667 -0.029266354 -0.016801825 -0.03202072 -0.016198916 -0.028692571
-0.008875027 -0.011911002 -0.015689567 -0.014684519 -0.0029826066 -0.014832595 -0.028155783 0.013202613
-0.03819499 -0.038073875 -0.026483694 -0.03691877 -0.029521624 -0.024147311 -0.021238295 -0.020505695
-0.0055074603 -0.013864403 -0.015207148 0.00068369857 -0.008638336 -0.02885943 -0.017263047 0.0060079144
-0.036503978 -0.024192832 -0.03727775 -0.04435168 -0.023876674 -0.023830194 -0.03801377 -0.025230022
0.0011104292 -0.009704699 -0.016948855 -0.0027243535 -0.02466107 -0.0072656185 -0.023897791 -0.0023783345
-0.032089733 -0.040085662 -0.030963698 -0.03362482 -0.02979271 -0.03139793 -0.025811126 0.00035780494
-0.0210919 -0.023289775 -0.021547088 -0.026872847 -0.015912049 -0.0137627395 -0.019789325 -0.0091078635
-0.04987799 -0.044813816 -0.028258687 -0.021404043 -0.03777152 -0.017345479 -0.029801574 -0.008635096
-0.019024186 -0.010819735 -0.019288953 -0.005018767 -0.031271644 -0.032237943 -0.022761485 -0.0008165349
-0.03278347 -0.040640075 -0.041115835 -0.026494788 -0.02212727 -0.026225366 -0.013540255 -0.025077118
-0.0105036795 -0.02600082 -0.01825011 -0.034683708 -0.02937669 -0.012462771 -0.020068763 0.010044147
-0.035659824 -0.038270246 -0.036774036 -0.024640903 -0.028161451 -0.018892124 -0.01356225 -0.013893767
-0.009389398 -0.011138393 -0.011510503 -0.027346106 -0.013011063 -0.006248882 -0.0056033074 -0.012311207
-0.02951504 -0.022135442 -0.040938903 -0.027541788 -0.016978968 -0.017016606 -0.019323202 -0.009161445
0.01337556 0.02270966 0.015683917 0.0040707365 -0.0044419067 0.0075929235 0.015455797 0.03247667
00000000: d7f9 eebc 17c5 18bd 5e7c fbbc 3f89 d5bc
00000010: f716 0dbd a487 50bd cfde f3bc f815 2bbd
00000020: ee40 e2bc bde1 54bd de3e cebc 3ba3 c2bc
00000030: d9b1 38bd 3def 02bd 3243 e7bc e3f5 55bc
00000040: 406c 05bd 77af c2bc 60eb 84bc 36d1 dfbc
00000050: 1c53 c9bc 25ee a8bc 2fca 09bd f13f 07bd
00000060: 8307 adbc 2fb8 d4bc bea9 1fbd 954a dbbc
00000070: 9215 f8bc 1521 e6bc 68a9 21bd 5a81 bb3a
00000080: 6d9d 47bd 4a5d d9bc cc3f 33bd a6d1 27bd
00000090: 06f5 3dbd 68f6 d0bc 0683 93bc fc7f 43bc
000000a0: d6a5 d3bc d036 01bd b7c2 c8bc f689 2dbd
000000b0: 9087 d4bc 4f72 27bd 8294 04bd ae78 043c
000000c0: 7d60 2ebd 8f21 9dbc 72d6 2dbd 2100 c9bc
000000d0: b832 c1bc ee6e 0abd ba0c f8bc 5d42 08bd
000000e0: ff03 90bc fa36 82bc aa03 58bc 6ce9 d4bc
000000f0: 679b 23bd e359 b4bc 4cf1 98bc 6937 c03b
00000100: 8f5f 4ebd 8e96 17bd 4bfd 24bd 804b 26bd
00000110: 530a 23bd 251f 0abd 9ac5 14bd dfde 0dbd
00000120: a3c4 43bc 7f3e 88bc 2b4e d9bc 95f3 bebc
00000130: b2d3 1ebd 6867 89bc c4f6 0fbc b8df 873c
00000140: 254d 4cbd e405 3dbd 510d 34bd 4303 ecbc
00000150: 37b2 3bbd 6f82 f3bc 6390 14bd a31f b2bc
00000160: 77d6 22bd 6aff a5bc 1212 a2bc 8ae7 cabc
00000170: a0e7 a3bc 6411 55bc 72cb 84bc 1a24 003d
00000180: dc93 68bd 2ec4 cdbc 054b 02bd 9c8b cbbc
00000190: 18ad f4bc 0b67 e0bc f6a0 20bd 58be 95bc
000001a0: 2609 babc 5e60 bdbc aadc 19bd d029 a6bc
000001b0: ced8 ccbc e5d4 e0bc aca5 4abb a655 ec3c
000001c0: 4c69 47bd 3ae0 f7bc 3871 1abd 71d8 f0bc
000001d0: 7969 85bc 3b47 16bd a2ae 71bc 6454 42bc
000001e0: 253a b3bc eb9b 4ebc 6efe 04bd 49b7 5bbc
000001f0: 9864 dbbc c414 0cbb 32a2 55bc c154 8ebb
00000200: 7adf 61bd e325 21bd 2358 c2bc febf efbc
00000210: fba3 89bc 2928 03bd 97b3 84bc af0c ebbc
00000220: 9068 11bc 5d26 43bc 6887 80bc 5697 70bc
00000230: d677 43bb 6a04 73bc f5a6 e6bc c64f 583c
00000240: 5a72 1cbd 5af3 1bbd 55f4 d8bc 2338 17bd
00000250: 55d7 f1bc 95d0 c5bc effb adbc 8ffb a7bc
00000260: ed77 b4bb 8527 63bc 6727 79bc 3c3a 333a
00000270: cf87 0dbc 9d6a ecbc 3c6b 8dbc 0ade c43b
00000280: 3285 15bd 0c30 c6bc 8eb0 18bd 1baa 35bd
00000290: 0499 c3bc 8a37 c3bc 54b4 1bbd 31af cebc
000002a0: d28b 913a 7500 1fbc 53d8 8abc 118b 32bb
000002b0: 0306 cabc 6d14 eebb 4dc5 c3bc d5dd 1bbb
000002c0: 8670 03bd dd30 24bd 95a7 fdbc 2eba 09bd
000002d0: d70f f4bc 1e9b 00bd db71 d3bc c497 bb39
000002e0: ecc8 acbc 33ca bebc 8583 b0bc 7224 dcbc
000002f0: fc59 82bc 1d7d 61bc 391d a2bc 2639 15bc
00000300: dd4c 4cbd b18e 37bd c37e e7bc 8857 afbc
00000310: 4fb6 1abd 1b18 8ebc 6e22 f4bc 387a 0dbc
00000320: 9cd8 9bbc 4245 31bc de03 9ebc 7874 a4bb
00000330: b216 00bd ef0b 04bd 4b76 babc bb0c 56ba
00000340: f647 06bd 3576 26bd 1469 28bd 990b d9bc
00000350: 4044 b5bc 94d6 d6bc f2d7 5dbc 876e cdbc
00000360: a017 2cbc acff d4bc 4181 95bc 8110 0ebd
00000370: 62a7 f0bc a630 4cbc 3f67 a4bc 3590 243c
00000380: 0910 12bd 43c1 1cbd 5fa0 16bd b8db c9bc
00000390: d8b2 e6bc a8c3 9abc 3334 5ebc afa2 63bc
000003a0: fdd5 19bc ce7d 36bc 8c96 3cbc f104 e0bc
000003b0: 5b2c 55bc 6cc3 ccbb f39b b7bb f2b4 49bc
000003c0: 86c9 f1bc 6355 b5bc 8daf 27bd 519f e1bc
000003d0: 7a17 8bbc 6966 8bbc b14b 9ebc e319 16bc
000003e0: 2a25 5b3c 9c09 ba3c 8f7b 803c d063 853b
000003f0: 6a8d 91bb 0fce f83b 503a 7d3c 4206 053d

classifier.1.bias f4 [10]
-0.52017695 -0.74331707 -0.84899044 -0.33594638 -0.507459 1.1515195 -0.9646927 -0.5195048
0.30730984 0.58010805
00000000: 512a 05bf 074a 3ebf 7057 59bf 2a01 acbe
00000010: d5e8 01bf fe64 933f 1af6 76bf 44fe 04bf
00000020: b757 9d3e f681 143f
